=== Full experiment pipeline ===
Start: qua 29 abr 2026 09:58:18 -03

>>> Starting cnn_lstm_deep_only at qua 29 abr 2026 09:58:18 -03
2026-04-29 09:58:19 INFO __main__: device=cuda
2026-04-29 09:58:19 INFO __main__: classes=6 n_tsfel_feats=75
2026-04-29 09:58:19 INFO __main__: model (cnn_lstm/deep_only):
HybridModel(
  (encoder): CNNLSTMEncoder(
    (cnn): Sequential(
      (0): Conv1d(3, 64, kernel_size=(5,), stride=(1,), padding=(2,))
      (1): BatchNorm1d(64, eps=1e-05, momentum=0.1, affine=True, track_running_stats=True)
      (2): ReLU()
      (3): Dropout(p=0.3, inplace=False)
      (4): Conv1d(64, 128, kernel_size=(3,), stride=(1,), padding=(1,))
      (5): BatchNorm1d(128, eps=1e-05, momentum=0.1, affine=True, track_running_stats=True)
      (6): ReLU()
      (7): MaxPool1d(kernel_size=2, stride=2, padding=0, dilation=1, ceil_mode=False)
    )
    (lstm): LSTM(128, 64, num_layers=2, batch_first=True, dropout=0.3, bidirectional=True)
  )
  (head): MLPHead(
    (net): Sequential(
      (0): Linear(in_features=128, out_features=256, bias=True)
      (1): ReLU()
      (2): Dropout(p=0.4, inplace=False)
      (3): Linear(in_features=256, out_features=6, bias=True)
    )
  )
)
2026-04-29 09:58:19 INFO hybrid_activity_recognition.training.trainer: Signal encoder requires_grad=True
2026-04-29 09:58:21 INFO hybrid_activity_recognition.training.trainer: Ep 001/100 | train_loss=1.6066 acc=52.51% | val_loss=1.3785 val_acc=59.51% | test_loss=1.4122 test_acc=55.65%
2026-04-29 09:58:21 INFO hybrid_activity_recognition.training.trainer: Ep 002/100 | train_loss=0.8970 acc=72.32% | val_loss=0.8497 val_acc=71.60% | test_loss=1.0324 test_acc=63.66%
…
2026-04-29 09:58:40 INFO __main__: saved confusion matrix: /home/emap/tironi/hybrid_activity_recognition/experiments/cnn_lstm_deep_only_UCI_HAR_ep100_bs512_lr1e-3_s2026/test_confusion_matrix.png
2026-04-29 09:58:40 INFO __main__: saved per-class metrics: /home/emap/tironi/hybrid_activity_recognition/experiments/cnn_lstm_deep_only_UCI_HAR_ep100_bs512_lr1e-3_s2026/test_classification_metrics.json
>>> cnn_lstm_deep_only done at qua 29 abr 2026 09:58:41 -03
>>> Starting cnn_lstm_hybrid at qua 29 abr 2026 09:58:41 -03
2026-04-29 09:58:43 INFO __main__: device=cuda
2026-04-29 09:58:43 INFO __main__: classes=6 n_tsfel_feats=75
2026-04-29 09:58:43 INFO __main__: model (cnn_lstm/hybrid):
HybridModel(
  (encoder): CNNLSTMEncoder(
    (cnn): Sequential(
      (0): Conv1d(3, 64, kernel_size=(5,), stride=(1,), padding=(2,))
      (1): BatchNorm1d(64, eps=1e-05, momentum=0.1, affine=True, track_running_stats=True)
      (2): ReLU()
      (3): Dropout(p=0.3, inplace=False)
      (4): Conv1d(64, 128, kernel_size=(3,), stride=(1,), padding=(1,))
      (5): BatchNorm1d(128, eps=1e-05, momentum=0.1, affine=True, track_running_stats=True)
      (6): ReLU()
      (7): MaxPool1d(kernel_size=2, stride=2, padding=0, dilation=1, ceil_mode=False)
    )
    (lstm): LSTM(128, 64, num_layers=2, batch_first=True, dropout=0.3, bidirectional=True)
  )
  (tsfel_branch): MLPTsfelBranch()
  (fusion): ConcatFusion()
  (head): MLPHead(
    (net): Sequential(
      (0): Linear(in_features=203, out_features=256, bias=True)
      (1): ReLU()
      (2): Dropout(p=0.4, inplace=False)
      (3): Linear(in_features=256, out_features=6, bias=True)
    )
  )
)
2026-04-29 09:58:43 INFO hybrid_activity_recognition.training.trainer: Signal encoder requires_grad=True
2026-04-29 09:58:44 INFO hybrid_activity_recognition.training.trainer: Ep 001/100 | train_loss=1.1862 acc=65.64% | val_loss=0.6549 val_acc=88.18% | test_loss=0.7166 test_acc=81.78%
2026-04-29 09:58:45 INFO hybrid_activity_recognition.training.trainer: Ep 002/100 | train_loss=0.4500 acc=86.37% | val_loss=0.3052 val_acc=90.49% | test_loss=0.4884 test_acc=83.17%
…
2026-04-29 09:58:58 INFO __main__: saved confusion matrix: /home/emap/tironi/hybrid_activity_recognition/experiments/cnn_lstm_hybrid_UCI_HAR_ep100_bs512_lr1e-3_s2026/test_confusion_matrix.png
2026-04-29 09:58:58 INFO __main__: saved per-class metrics: /home/emap/tironi/hybrid_activity_recognition/experiments/cnn_lstm_hybrid_UCI_HAR_ep100_bs512_lr1e-3_s2026/test_classification_metrics.json
>>> cnn_lstm_hybrid done at qua 29 abr 2026 09:58:59 -03
>>> Starting robust_deep_only at qua 29 abr 2026 09:58:59 -03
2026-04-29 09:59:01 INFO __main__: device=cuda
2026-04-29 09:59:01 INFO __main__: classes=6 n_tsfel_feats=75
2026-04-29 09:59:01 INFO __main__: model (robust/deep_only):
HybridModel(
  (encoder): RobustCNNLSTMEncoder(
    (cnn): Sequential(
      (0): Conv1d(3, 64, kernel_size=(3,), stride=(1,), padding=(1,))
      (1): BatchNorm1d(64, eps=1e-05, momentum=0.1, affine=True, track_running_stats=True)
      (2): ReLU()
      (3): MaxPool1d(kernel_size=2, stride=2, padding=0, dilation=1, ceil_mode=False)
      (4): Conv1d(64, 128, kernel_size=(3,), stride=(1,), padding=(1,))
      (5): BatchNorm1d(128, eps=1e-05, momentum=0.1, affine=True, track_running_stats=True)
      (6): ReLU()
      (7): MaxPool1d(kernel_size=2, stride=2, padding=0, dilation=1, ceil_mode=False)
      (8): Conv1d(128, 256, kernel_size=(3,), stride=(1,), padding=(1,))
      (9): BatchNorm1d(256, eps=1e-05, momentum=0.1, affine=True, track_running_stats=True)
      (10): ReLU()
    )
    (lstm): LSTM(256, 128, batch_first=True, bidirectional=True)
  )
  (head): MLPHead(
    (net): Sequential(
      (0): Linear(in_features=256, out_features=256, bias=True)
      (1): ReLU()
      (2): Dropout(p=0.4, inplace=False)
      (3): Linear(in_features=256, out_features=6, bias=True)
    )
  )
)
2026-04-29 09:59:01 INFO hybrid_activity_recognition.training.trainer: Signal encoder requires_grad=True
2026-04-29 09:59:02 INFO hybrid_activity_recognition.training.trainer: Ep 001/100 | train_loss=1.1533 acc=64.60% | val_loss=0.5827 val_acc=78.94% | test_loss=0.7927 test_acc=71.60%
2026-04-29 09:59:03 INFO hybrid_activity_recognition.training.trainer: Ep 002/100 | train_loss=0.3241 acc=87.65% | val_loss=0.2538 val_acc=88.86% | test_loss=0.6054 test_acc=77.23%
…
2026-04-29 09:59:14 INFO __main__: saved confusion matrix: /home/emap/tironi/hybrid_activity_recognition/experiments/robust_deep_only_UCI_HAR_ep100_bs512_lr1e-3_s2026/test_confusion_matrix.png
2026-04-29 09:59:14 INFO __main__: saved per-class metrics: /home/emap/tironi/hybrid_activity_recognition/experiments/robust_deep_only_UCI_HAR_ep100_bs512_lr1e-3_s2026/test_classification_metrics.json
>>> robust_deep_only done at qua 29 abr 2026 09:59:15 -03
>>> Starting robust_hybrid at qua 29 abr 2026 09:59:15 -03
2026-04-29 09:59:16 INFO __main__: device=cuda
2026-04-29 09:59:17 INFO __main__: classes=6 n_tsfel_feats=75
2026-04-29 09:59:17 INFO __main__: model (robust/hybrid):
HybridModel(
  (encoder): RobustCNNLSTMEncoder(
    (cnn): Sequential(
      (0): Conv1d(3, 64, kernel_size=(3,), stride=(1,), padding=(1,))
      (1): BatchNorm1d(64, eps=1e-05, momentum=0.1, affine=True, track_running_stats=True)
      (2): ReLU()
      (3): MaxPool1d(kernel_size=2, stride=2, padding=0, dilation=1, ceil_mode=False)
      (4): Conv1d(64, 128, kernel_size=(3,), stride=(1,), padding=(1,))
      (5): BatchNorm1d(128, eps=1e-05, momentum=0.1, affine=True, track_running_stats=True)
      (6): ReLU()
      (7): MaxPool1d(kernel_size=2, stride=2, padding=0, dilation=1, ceil_mode=False)
      (8): Conv1d(128, 256, kernel_size=(3,), stride=(1,), padding=(1,))
      (9): BatchNorm1d(256, eps=1e-05, momentum=0.1, affine=True, track_running_stats=True)
      (10): ReLU()
    )
    (lstm): LSTM(256, 128, batch_first=True, bidirectional=True)
  )
  (tsfel_branch): MLPTsfelBranch()
  (fusion): ConcatFusion()
  (head): MLPHead(
    (net): Sequential(
      (0): Linear(in_features=331, out_features=256, bias=True)
      (1): ReLU()
      (2): Dropout(p=0.4, inplace=False)
      (3): Linear(in_features=256, out_features=6, bias=True)
    )
  )
)
2026-04-29 09:59:17 INFO hybrid_activity_recognition.training.trainer: Signal encoder requires_grad=True
2026-04-29 09:59:18 INFO hybrid_activity_recognition.training.trainer: Ep 001/100 | train_loss=0.9553 acc=71.22% | val_loss=0.3751 val_acc=89.67% | test_loss=0.5542 test_acc=79.37%
2026-04-29 09:59:18 INFO hybrid_activity_recognition.training.trainer: Ep 002/100 | train_loss=0.2605 acc=90.33% | val_loss=0.1532 val_acc=94.84% | test_loss=0.4429 test_acc=83.47%
…
>>> PatchTST: from scratch (no MAE checkpoint)
>>> Starting patchtst_deep_only at qua 29 abr 2026 09:59:40 -03
2026-04-29 09:59:42 INFO __main__: device=cuda
2026-04-29 09:59:42 INFO __main__: classes=6 n_tsfel_feats=75
2026-04-29 09:59:43 INFO __main__: model (patchtst/deep_only):
HybridModel(
  (encoder): PatchTSTEncoder(
    (_backbone): PatchTSTModel(
      (scaler): PatchTSTScaler(
        (scaler): PatchTSTStdScaler()
      )
      (patchifier): PatchTSTPatchify()
      (masking): Identity()
      (encoder): PatchTSTEncoder(
        (embedder): PatchTSTEmbedding(
          (input_embedding): Linear(in_features=12, out_features=128, bias=True)
        )
        (positional_encoder): PatchTSTPositionalEncoding(
          (positional_dropout): Identity()
        )
        (layers): ModuleList(
          (0-2): 3 x PatchTSTEncoderLayer(
            (self_attn): PatchTSTAttention(
              (k_proj): Linear(in_features=128, out_features=128, bias=True)
              (v_proj): Linear(in_features=128, out_features=128, bias=True)
              (q_proj): Linear(in_features=128, out_features=128, bias=True)
              (out_proj): Linear(in_features=128, out_features=128, bias=True)
            )
            (dropout_path1): Identity()
            (norm_sublayer1): PatchTSTBatchNorm(
              (batchnorm): BatchNorm1d(128, eps=1e-05, momentum=0.1, affine=True, track_running_stats=True)
            )
            (ff): Sequential(
              (0): Linear(in_features=128, out_features=512, bias=True)
              (1): GELUActivation()
              (2): Dropout(p=0.2, inplace=False)
              (3): Linear(in_features=512, out_features=128, bias=True)
            )
            (dropout_path3): Identity()
            (norm_sublayer3): PatchTSTBatchNorm(
              (batchnorm): BatchNorm1d(128, eps=1e-05, momentum=0.1, affine=True, track_running_stats=True)
            )
          )
        )
      )
    )
  )
  (head): MLPHead(
    (net): Sequential(
      (0): Linear(in_features=128, out_features=256, bias=True)
      (1): ReLU()
      (2): Dropout(p=0.2, inplace=False)
      (3): Linear(in_features=256, out_features=6, bias=True)
    )
  )
)
2026-04-29 09:59:43 INFO hybrid_activity_recognition.training.trainer: Signal encoder requires_grad=True
2026-04-29 09:59:45 INFO hybrid_activity_recognition.training.trainer: Ep 001/100 | train_loss=1.2618 acc=38.74% | val_loss=1.2275 val_acc=42.26% | test_loss=1.2602 test_acc=39.84%
2026-04-29 09:59:46 INFO hybrid_activity_recognition.training.trainer: Ep 002/100 | train_loss=0.9628 acc=52.52% | val_loss=1.0428 val_acc=53.53% | test_loss=0.9787 test_acc=53.51%
…
>>> patchtst_deep_only done at qua 29 abr 2026 10:00:32 -03
>>> Starting patchtst_hybrid at qua 29 abr 2026 10:00:32 -03
2026-04-29 10:00:34 INFO __main__: device=cuda
2026-04-29 10:00:34 INFO __main__: classes=6 n_tsfel_feats=75
2026-04-29 10:00:36 INFO __main__: model (patchtst/hybrid):
HybridModel(
  (encoder): PatchTSTEncoder(
    (_backbone): PatchTSTModel(
      (scaler): PatchTSTScaler(
        (scaler): PatchTSTStdScaler()
      )
      (patchifier): PatchTSTPatchify()
      (masking): Identity()
      (encoder): PatchTSTEncoder(
        (embedder): PatchTSTEmbedding(
          (input_embedding): Linear(in_features=12, out_features=128, bias=True)
        )
        (positional_encoder): PatchTSTPositionalEncoding(
          (positional_dropout): Identity()
        )
        (layers): ModuleList(
          (0-2): 3 x PatchTSTEncoderLayer(
            (self_attn): PatchTSTAttention(
              (k_proj): Linear(in_features=128, out_features=128, bias=True)
              (v_proj): Linear(in_features=128, out_features=128, bias=True)
              (q_proj): Linear(in_features=128, out_features=128, bias=True)
              (out_proj): Linear(in_features=128, out_features=128, bias=True)
            )
            (dropout_path1): Identity()
            (norm_sublayer1): PatchTSTBatchNorm(
              (batchnorm): BatchNorm1d(128, eps=1e-05, momentum=0.1, affine=True, track_running_stats=True)
            )
            (ff): Sequential(
              (0): Linear(in_features=128, out_features=512, bias=True)
              (1): GELUActivation()
              (2): Dropout(p=0.2, inplace=False)
              (3): Linear(in_features=512, out_features=128, bias=True)
            )
            (dropout_path3): Identity()
            (norm_sublayer3): PatchTSTBatchNorm(
              (batchnorm): BatchNorm1d(128, eps=1e-05, momentum=0.1, affine=True, track_running_stats=True)
            )
          )
        )
      )
    )
  )
  (tsfel_branch): MLPTsfelBranch()
  (fusion): ConcatFusion()
  (head): MLPHead(
    (net): Sequential(
      (0): Linear(in_features=203, out_features=256, bias=True)
      (1): ReLU()
      (2): Dropout(p=0.2, inplace=False)
      (3): Linear(in_features=256, out_features=6, bias=True)
    )
  )
)
2026-04-29 10:00:36 INFO hybrid_activity_recognition.training.trainer: Signal encoder requires_grad=True
2026-04-29 10:00:37 INFO hybrid_activity_recognition.training.trainer: Ep 001/100 | train_loss=0.6481 acc=76.39% | val_loss=0.3741 val_acc=86.28% | test_loss=0.5006 test_acc=77.84%
2026-04-29 10:00:38 INFO hybrid_activity_recognition.training.trainer: Ep 002/100 | train_loss=0.2819 acc=88.89% | val_loss=0.2129 val_acc=91.98% | test_loss=0.3079 test_acc=87.21%
…
>>> patchtst_hybrid done at qua 29 abr 2026 10:01:09 -03
>>> Starting patchtst_deep_only at qua 29 abr 2026 10:01:09 -03
2026-04-29 10:01:10 INFO __main__: device=cuda
2026-04-29 10:01:10 INFO __main__: classes=6 n_tsfel_feats=75
2026-04-29 10:01:12 INFO __main__: model (patchtst/deep_only):
HybridModel(
  (encoder): PatchTSTEncoder(
    (_backbone): PatchTSTModel(
      (scaler): PatchTSTScaler(
        (scaler): PatchTSTStdScaler()
      )
      (patchifier): PatchTSTPatchify()
      (masking): Identity()
      (encoder): PatchTSTEncoder(
        (embedder): PatchTSTEmbedding(
          (input_embedding): Linear(in_features=12, out_features=128, bias=True)
        )
        (positional_encoder): PatchTSTPositionalEncoding(
          (positional_dropout): Identity()
        )
        (layers): ModuleList(
          (0-2): 3 x PatchTSTEncoderLayer(
            (self_attn): PatchTSTAttention(
              (k_proj): Linear(in_features=128, out_features=128, bias=True)
              (v_proj): Linear(in_features=128, out_features=128, bias=True)
              (q_proj): Linear(in_features=128, out_features=128, bias=True)
              (out_proj): Linear(in_features=128, out_features=128, bias=True)
            )
            (dropout_path1): Identity()
            (norm_sublayer1): PatchTSTBatchNorm(
              (batchnorm): BatchNorm1d(128, eps=1e-05, momentum=0.1, affine=True, track_running_stats=True)
            )
            (ff): Sequential(
              (0): Linear(in_features=128, out_features=512, bias=True)
              (1): GELUActivation()
              (2): Dropout(p=0.2, inplace=False)
              (3): Linear(in_features=512, out_features=128, bias=True)
            )
            (dropout_path3): Identity()
            (norm_sublayer3): PatchTSTBatchNorm(
              (batchnorm): BatchNorm1d(128, eps=1e-05, momentum=0.1, affine=True, track_running_stats=True)
            )
          )
        )
      )
    )
  )
  (head): PatchTSTHFClassificationHead(
    (_head): PatchTSTClassificationHead(
      (flatten): Flatten(start_dim=1, end_dim=-1)
      (dropout): Dropout(p=0.2, inplace=False)
      (linear): Linear(in_features=384, out_features=6, bias=True)
    )
  )
)
2026-04-29 10:01:12 INFO hybrid_activity_recognition.training.trainer: Signal encoder requires_grad=True
2026-04-29 10:01:13 INFO hybrid_activity_recognition.training.trainer: Ep 001/100 | train_loss=1.1056 acc=50.92% | val_loss=0.9104 val_acc=57.34% | test_loss=0.7431 test_acc=66.54%
2026-04-29 10:01:14 INFO hybrid_activity_recognition.training.trainer: Ep 002/100 | train_loss=0.7907 acc=65.08% | val_loss=0.7985 val_acc=64.67% | test_loss=0.6674 test_acc=70.11%
…
