nohup: ignorando entrada
=== Full experiment pipeline ===
Start: dom 26 abr 2026 18:11:40 -03

>>> Starting cnn_lstm_deep_only at dom 26 abr 2026 18:11:40 -03
2026-04-26 18:11:41 INFO __main__: device=cuda
2026-04-26 18:11:42 INFO __main__: classes=17 n_tsfel_feats=75
2026-04-26 18:11:42 INFO __main__: model (cnn_lstm/deep_only):
HybridModel(
  (encoder): CNNLSTMEncoder(
    (cnn): Sequential(
      (0): Conv1d(3, 64, kernel_size=(5,), stride=(1,), padding=(2,))
      (1): BatchNorm1d(64, eps=1e-05, momentum=0.1, affine=True, track_running_stats=True)
      (2): ReLU()
      (3): Dropout(p=0.3, inplace=False)
      (4): Conv1d(64, 128, kernel_size=(3,), stride=(1,), padding=(1,))
      (5): BatchNorm1d(128, eps=1e-05, momentum=0.1, affine=True, track_running_stats=True)
      (6): ReLU()
      (7): MaxPool1d(kernel_size=2, stride=2, padding=0, dilation=1, ceil_mode=False)
    )
    (lstm): LSTM(128, 64, num_layers=2, batch_first=True, dropout=0.3, bidirectional=True)
  )
  (head): MLPHead(
    (net): Sequential(
      (0): Linear(in_features=128, out_features=256, bias=True)
      (1): ReLU()
      (2): Dropout(p=0.4, inplace=False)
      (3): Linear(in_features=256, out_features=17, bias=True)
    )
  )
)
2026-04-26 18:11:42 INFO hybrid_activity_recognition.training.trainer: Signal encoder requires_grad=True
2026-04-26 18:11:44 INFO hybrid_activity_recognition.training.trainer: Ep 001/100 | train_loss=2.4365 acc=29.03% | val_loss=2.1759 val_acc=38.51%
2026-04-26 18:11:45 INFO hybrid_activity_recognition.training.trainer: Ep 002/100 | train_loss=2.0925 acc=36.25% | val_loss=1.9836 val_acc=32.59%
…
2026-04-26 18:13:04 INFO __main__: saved confusion matrix: /home/emap/tironi/hybrid_activity_recognition/experiments/cnn_lstm_deep_only_AcTBeCalf_ep100_bs512_lr1e-3_s2026/test_confusion_matrix.png
2026-04-26 18:13:04 INFO __main__: saved per-class metrics: /home/emap/tironi/hybrid_activity_recognition/experiments/cnn_lstm_deep_only_AcTBeCalf_ep100_bs512_lr1e-3_s2026/test_classification_metrics.json
>>> cnn_lstm_deep_only done at dom 26 abr 2026 18:13:05 -03
>>> Starting cnn_lstm_hybrid at dom 26 abr 2026 18:13:05 -03
2026-04-26 18:13:07 INFO __main__: device=cuda
2026-04-26 18:13:07 INFO __main__: classes=17 n_tsfel_feats=75
2026-04-26 18:13:07 INFO __main__: model (cnn_lstm/hybrid):
HybridModel(
  (encoder): CNNLSTMEncoder(
    (cnn): Sequential(
      (0): Conv1d(3, 64, kernel_size=(5,), stride=(1,), padding=(2,))
      (1): BatchNorm1d(64, eps=1e-05, momentum=0.1, affine=True, track_running_stats=True)
      (2): ReLU()
      (3): Dropout(p=0.3, inplace=False)
      (4): Conv1d(64, 128, kernel_size=(3,), stride=(1,), padding=(1,))
      (5): BatchNorm1d(128, eps=1e-05, momentum=0.1, affine=True, track_running_stats=True)
      (6): ReLU()
      (7): MaxPool1d(kernel_size=2, stride=2, padding=0, dilation=1, ceil_mode=False)
    )
    (lstm): LSTM(128, 64, num_layers=2, batch_first=True, dropout=0.3, bidirectional=True)
  )
  (tsfel_branch): MLPTsfelBranch()
  (fusion): ConcatFusion()
  (head): MLPHead(
    (net): Sequential(
      (0): Linear(in_features=203, out_features=256, bias=True)
      (1): ReLU()
      (2): Dropout(p=0.4, inplace=False)
      (3): Linear(in_features=256, out_features=17, bias=True)
    )
  )
)
2026-04-26 18:13:07 INFO hybrid_activity_recognition.training.trainer: Signal encoder requires_grad=True
2026-04-26 18:13:09 INFO hybrid_activity_recognition.training.trainer: Ep 001/100 | train_loss=2.0726 acc=46.27% | val_loss=1.7027 val_acc=53.08%
2026-04-26 18:13:10 INFO hybrid_activity_recognition.training.trainer: Ep 002/100 | train_loss=1.6697 acc=53.36% | val_loss=1.5496 val_acc=58.87%
…
2026-04-26 18:14:40 INFO __main__: saved confusion matrix: /home/emap/tironi/hybrid_activity_recognition/experiments/cnn_lstm_hybrid_AcTBeCalf_ep100_bs512_lr1e-3_s2026/test_confusion_matrix.png
2026-04-26 18:14:40 INFO __main__: saved per-class metrics: /home/emap/tironi/hybrid_activity_recognition/experiments/cnn_lstm_hybrid_AcTBeCalf_ep100_bs512_lr1e-3_s2026/test_classification_metrics.json
>>> cnn_lstm_hybrid done at dom 26 abr 2026 18:14:41 -03
>>> Starting robust_deep_only at dom 26 abr 2026 18:14:41 -03
2026-04-26 18:14:43 INFO __main__: device=cuda
2026-04-26 18:14:43 INFO __main__: classes=17 n_tsfel_feats=75
2026-04-26 18:14:43 INFO __main__: model (robust/deep_only):
HybridModel(
  (encoder): RobustCNNLSTMEncoder(
    (cnn): Sequential(
      (0): Conv1d(3, 64, kernel_size=(3,), stride=(1,), padding=(1,))
      (1): BatchNorm1d(64, eps=1e-05, momentum=0.1, affine=True, track_running_stats=True)
      (2): ReLU()
      (3): MaxPool1d(kernel_size=2, stride=2, padding=0, dilation=1, ceil_mode=False)
      (4): Conv1d(64, 128, kernel_size=(3,), stride=(1,), padding=(1,))
      (5): BatchNorm1d(128, eps=1e-05, momentum=0.1, affine=True, track_running_stats=True)
      (6): ReLU()
      (7): MaxPool1d(kernel_size=2, stride=2, padding=0, dilation=1, ceil_mode=False)
      (8): Conv1d(128, 256, kernel_size=(3,), stride=(1,), padding=(1,))
      (9): BatchNorm1d(256, eps=1e-05, momentum=0.1, affine=True, track_running_stats=True)
      (10): ReLU()
    )
    (lstm): LSTM(256, 128, batch_first=True, bidirectional=True)
  )
  (head): MLPHead(
    (net): Sequential(
      (0): Linear(in_features=256, out_features=256, bias=True)
      (1): ReLU()
      (2): Dropout(p=0.4, inplace=False)
      (3): Linear(in_features=256, out_features=17, bias=True)
    )
  )
)
2026-04-26 18:14:43 INFO hybrid_activity_recognition.training.trainer: Signal encoder requires_grad=True
2026-04-26 18:14:45 INFO hybrid_activity_recognition.training.trainer: Ep 001/100 | train_loss=2.1822 acc=35.70% | val_loss=1.8766 val_acc=39.62%
2026-04-26 18:14:46 INFO hybrid_activity_recognition.training.trainer: Ep 002/100 | train_loss=1.8487 acc=43.90% | val_loss=1.7568 val_acc=47.68%
…
2026-04-26 18:16:01 INFO __main__: saved confusion matrix: /home/emap/tironi/hybrid_activity_recognition/experiments/robust_deep_only_AcTBeCalf_ep100_bs512_lr1e-3_s2026/test_confusion_matrix.png
2026-04-26 18:16:01 INFO __main__: saved per-class metrics: /home/emap/tironi/hybrid_activity_recognition/experiments/robust_deep_only_AcTBeCalf_ep100_bs512_lr1e-3_s2026/test_classification_metrics.json
>>> robust_deep_only done at dom 26 abr 2026 18:16:02 -03
>>> Starting robust_hybrid at dom 26 abr 2026 18:16:02 -03
2026-04-26 18:16:03 INFO __main__: device=cuda
2026-04-26 18:16:04 INFO __main__: classes=17 n_tsfel_feats=75
2026-04-26 18:16:04 INFO __main__: model (robust/hybrid):
HybridModel(
  (encoder): RobustCNNLSTMEncoder(
    (cnn): Sequential(
      (0): Conv1d(3, 64, kernel_size=(3,), stride=(1,), padding=(1,))
      (1): BatchNorm1d(64, eps=1e-05, momentum=0.1, affine=True, track_running_stats=True)
      (2): ReLU()
      (3): MaxPool1d(kernel_size=2, stride=2, padding=0, dilation=1, ceil_mode=False)
      (4): Conv1d(64, 128, kernel_size=(3,), stride=(1,), padding=(1,))
      (5): BatchNorm1d(128, eps=1e-05, momentum=0.1, affine=True, track_running_stats=True)
      (6): ReLU()
      (7): MaxPool1d(kernel_size=2, stride=2, padding=0, dilation=1, ceil_mode=False)
      (8): Conv1d(128, 256, kernel_size=(3,), stride=(1,), padding=(1,))
      (9): BatchNorm1d(256, eps=1e-05, momentum=0.1, affine=True, track_running_stats=True)
      (10): ReLU()
    )
    (lstm): LSTM(256, 128, batch_first=True, bidirectional=True)
  )
  (tsfel_branch): MLPTsfelBranch()
  (fusion): ConcatFusion()
  (head): MLPHead(
    (net): Sequential(
      (0): Linear(in_features=331, out_features=256, bias=True)
      (1): ReLU()
      (2): Dropout(p=0.4, inplace=False)
      (3): Linear(in_features=256, out_features=17, bias=True)
    )
  )
)
2026-04-26 18:16:04 INFO hybrid_activity_recognition.training.trainer: Signal encoder requires_grad=True
2026-04-26 18:16:06 INFO hybrid_activity_recognition.training.trainer: Ep 001/100 | train_loss=2.0019 acc=48.17% | val_loss=1.6704 val_acc=50.08%
2026-04-26 18:16:07 INFO hybrid_activity_recognition.training.trainer: Ep 002/100 | train_loss=1.6163 acc=53.64% | val_loss=1.5159 val_acc=57.81%
…
>>> PatchTST: from scratch (no MAE checkpoint)
>>> Starting patchtst_deep_only at dom 26 abr 2026 18:17:09 -03
2026-04-26 18:17:10 INFO __main__: device=cuda
2026-04-26 18:17:11 INFO __main__: classes=17 n_tsfel_feats=75
2026-04-26 18:17:12 INFO __main__: model (patchtst/deep_only):
HybridModel(
  (encoder): PatchTSTEncoder(
    (_backbone): PatchTSTModel(
      (scaler): PatchTSTScaler(
        (scaler): PatchTSTStdScaler()
      )
      (patchifier): PatchTSTPatchify()
      (masking): Identity()
      (encoder): PatchTSTEncoder(
        (embedder): PatchTSTEmbedding(
          (input_embedding): Linear(in_features=12, out_features=128, bias=True)
        )
        (positional_encoder): PatchTSTPositionalEncoding(
          (positional_dropout): Identity()
        )
        (layers): ModuleList(
          (0-2): 3 x PatchTSTEncoderLayer(
            (self_attn): PatchTSTAttention(
              (k_proj): Linear(in_features=128, out_features=128, bias=True)
              (v_proj): Linear(in_features=128, out_features=128, bias=True)
              (q_proj): Linear(in_features=128, out_features=128, bias=True)
              (out_proj): Linear(in_features=128, out_features=128, bias=True)
            )
            (dropout_path1): Identity()
            (norm_sublayer1): PatchTSTBatchNorm(
              (batchnorm): BatchNorm1d(128, eps=1e-05, momentum=0.1, affine=True, track_running_stats=True)
            )
            (ff): Sequential(
              (0): Linear(in_features=128, out_features=512, bias=True)
              (1): GELUActivation()
              (2): Dropout(p=0.2, inplace=False)
              (3): Linear(in_features=512, out_features=128, bias=True)
            )
            (dropout_path3): Identity()
            (norm_sublayer3): PatchTSTBatchNorm(
              (batchnorm): BatchNorm1d(128, eps=1e-05, momentum=0.1, affine=True, track_running_stats=True)
            )
          )
        )
      )
    )
  )
  (head): MLPHead(
    (net): Sequential(
      (0): Linear(in_features=128, out_features=256, bias=True)
      (1): ReLU()
      (2): Dropout(p=0.2, inplace=False)
      (3): Linear(in_features=256, out_features=17, bias=True)
    )
  )
)
2026-04-26 18:17:12 INFO hybrid_activity_recognition.training.trainer: Signal encoder requires_grad=True
2026-04-26 18:17:17 INFO hybrid_activity_recognition.training.trainer: Ep 001/100 | train_loss=2.7543 acc=12.71% | val_loss=2.7275 val_acc=8.56%
2026-04-26 18:17:21 INFO hybrid_activity_recognition.training.trainer: Ep 002/100 | train_loss=2.6878 acc=17.25% | val_loss=2.7189 val_acc=10.84%
…
>>> patchtst_deep_only done at dom 26 abr 2026 18:18:59 -03
>>> Starting patchtst_hybrid at dom 26 abr 2026 18:18:59 -03
2026-04-26 18:19:01 INFO __main__: device=cuda
2026-04-26 18:19:02 INFO __main__: classes=17 n_tsfel_feats=75
2026-04-26 18:19:03 INFO __main__: model (patchtst/hybrid):
HybridModel(
  (encoder): PatchTSTEncoder(
    (_backbone): PatchTSTModel(
      (scaler): PatchTSTScaler(
        (scaler): PatchTSTStdScaler()
      )
      (patchifier): PatchTSTPatchify()
      (masking): Identity()
      (encoder): PatchTSTEncoder(
        (embedder): PatchTSTEmbedding(
          (input_embedding): Linear(in_features=12, out_features=128, bias=True)
        )
        (positional_encoder): PatchTSTPositionalEncoding(
          (positional_dropout): Identity()
        )
        (layers): ModuleList(
          (0-2): 3 x PatchTSTEncoderLayer(
            (self_attn): PatchTSTAttention(
              (k_proj): Linear(in_features=128, out_features=128, bias=True)
              (v_proj): Linear(in_features=128, out_features=128, bias=True)
              (q_proj): Linear(in_features=128, out_features=128, bias=True)
              (out_proj): Linear(in_features=128, out_features=128, bias=True)
            )
            (dropout_path1): Identity()
            (norm_sublayer1): PatchTSTBatchNorm(
              (batchnorm): BatchNorm1d(128, eps=1e-05, momentum=0.1, affine=True, track_running_stats=True)
            )
            (ff): Sequential(
              (0): Linear(in_features=128, out_features=512, bias=True)
              (1): GELUActivation()
              (2): Dropout(p=0.2, inplace=False)
              (3): Linear(in_features=512, out_features=128, bias=True)
            )
            (dropout_path3): Identity()
            (norm_sublayer3): PatchTSTBatchNorm(
              (batchnorm): BatchNorm1d(128, eps=1e-05, momentum=0.1, affine=True, track_running_stats=True)
            )
          )
        )
      )
    )
  )
  (tsfel_branch): MLPTsfelBranch()
  (fusion): ConcatFusion()
  (head): MLPHead(
    (net): Sequential(
      (0): Linear(in_features=203, out_features=256, bias=True)
      (1): ReLU()
      (2): Dropout(p=0.2, inplace=False)
      (3): Linear(in_features=256, out_features=17, bias=True)
    )
  )
)
2026-04-26 18:19:03 INFO hybrid_activity_recognition.training.trainer: Signal encoder requires_grad=True
2026-04-26 18:19:08 INFO hybrid_activity_recognition.training.trainer: Ep 001/100 | train_loss=1.9229 acc=51.26% | val_loss=1.6421 val_acc=52.91%
2026-04-26 18:19:12 INFO hybrid_activity_recognition.training.trainer: Ep 002/100 | train_loss=1.5707 acc=56.05% | val_loss=1.5329 val_acc=58.75%
…
>>> patchtst_hybrid done at dom 26 abr 2026 18:22:18 -03
>>> Starting patchtst_deep_only at dom 26 abr 2026 18:22:18 -03
2026-04-26 18:22:19 INFO __main__: device=cuda
2026-04-26 18:22:20 INFO __main__: classes=17 n_tsfel_feats=75
2026-04-26 18:22:21 INFO __main__: model (patchtst/deep_only):
HybridModel(
  (encoder): PatchTSTEncoder(
    (_backbone): PatchTSTModel(
      (scaler): PatchTSTScaler(
        (scaler): PatchTSTStdScaler()
      )
      (patchifier): PatchTSTPatchify()
      (masking): Identity()
      (encoder): PatchTSTEncoder(
        (embedder): PatchTSTEmbedding(
          (input_embedding): Linear(in_features=12, out_features=128, bias=True)
        )
        (positional_encoder): PatchTSTPositionalEncoding(
          (positional_dropout): Identity()
        )
        (layers): ModuleList(
          (0-2): 3 x PatchTSTEncoderLayer(
            (self_attn): PatchTSTAttention(
              (k_proj): Linear(in_features=128, out_features=128, bias=True)
              (v_proj): Linear(in_features=128, out_features=128, bias=True)
              (q_proj): Linear(in_features=128, out_features=128, bias=True)
              (out_proj): Linear(in_features=128, out_features=128, bias=True)
            )
            (dropout_path1): Identity()
            (norm_sublayer1): PatchTSTBatchNorm(
              (batchnorm): BatchNorm1d(128, eps=1e-05, momentum=0.1, affine=True, track_running_stats=True)
            )
            (ff): Sequential(
              (0): Linear(in_features=128, out_features=512, bias=True)
              (1): GELUActivation()
              (2): Dropout(p=0.2, inplace=False)
              (3): Linear(in_features=512, out_features=128, bias=True)
            )
            (dropout_path3): Identity()
            (norm_sublayer3): PatchTSTBatchNorm(
              (batchnorm): BatchNorm1d(128, eps=1e-05, momentum=0.1, affine=True, track_running_stats=True)
            )
          )
        )
      )
    )
  )
  (head): PatchTSTHFClassificationHead(
    (_head): PatchTSTClassificationHead(
      (flatten): Flatten(start_dim=1, end_dim=-1)
      (dropout): Dropout(p=0.2, inplace=False)
      (linear): Linear(in_features=384, out_features=17, bias=True)
    )
  )
)
2026-04-26 18:22:21 INFO hybrid_activity_recognition.training.trainer: Signal encoder requires_grad=True
2026-04-26 18:22:26 INFO hybrid_activity_recognition.training.trainer: Ep 001/100 | train_loss=2.5491 acc=29.49% | val_loss=2.3570 val_acc=36.90%
2026-04-26 18:22:30 INFO hybrid_activity_recognition.training.trainer: Ep 002/100 | train_loss=2.3534 acc=36.45% | val_loss=2.3275 val_acc=38.78%
…
